…
rue,"base_uri":"https://localhost:8080/"},"executionInfo":{"elapsed":27,"status":"ok","timestamp":1704382424740,"user":{"displayName":"Agneeshwaran N M","userId":"06849285604708332594"},"user_tz":-330},"id":"nsVW6Gi2D-jj","outputId":"1f201b33-5e70-4bce-93db-9fb815e8ab81"},"outputs":[{"name":"stdout","output_type":"stream","text":["Model: \"sequential_2\"\n","_________________________________________________________________\n"," Layer (type)                Output Shape              Param #   \n","=================================================================\n"," conv2d_10 (Conv2D)          (None, 55, 55, 96)        34944     \n","                                                                 \n"," max_pooling2d_6 (MaxPoolin  (None, 27, 27, 96)        0         \n"," g2D)                                                            \n","                                                                 \n"," conv2d_11 (Conv2D)          (None, 27, 27, 256)       614656    \n","                                                                 \n"," max_pooling2d_7 (MaxPoolin  (None, 13, 13, 256)       0         \n"," g2D)                                                            \n","                                                                 \n"," conv2d_12 (Conv2D)          (None, 13, 13, 384)       885120    \n","                                                                 \n"," conv2d_13 (Conv2D)          (None, 13, 13, 384)       1327488   \n","                                                                 \n"," conv2d_14 (Conv2D)          (None, 13, 13, 256)       884992    \n","                                                                 \n"," max_pooling2d_8 (MaxPoolin  (None, 6, 6, 256)         0         \n"," g2D)                                                            \n","                                                                 \n"," flatten_2 (Flatten)         (None, 9216)              0         \n","                                                                 \n"," dense_4 (Dense)             (None, 4096)              37752832  \n","                                                                 \n"," dropout_2 (Dropout)         (None, 4096)              0         \n","                                                                 \n"," dense_5 (Dense)             (None, 4096)              16781312  \n","                                                                 \n"," dropout_3 (Dropout)         (None, 4096)              0         \n","                                                                 \n"," dense_6 (Dense)             (None, 2)                 8194      \n","                                                                 \n","=================================================================\n","Total params: 58289538 (222.36 MB)\n","Trainable params: 58289538 (222.36 MB)\n","Non-trainable params: 0 (0.00 Byte)\n","_________________________________________________________________\n"]}],"source":["model.summary()"]},{"cell_type":"code","exec
…
